data.pth (torch, 9258 bytes, 6 tensors)

l1.weight f4 [8, 82]
0.5208238 0.88576055 -0.19380465 0.11682368 -0.031147592 0.6253316 0.9075095 0.7705427
-1.5724654 0.8510247 -0.41631606 0.7991592 -0.063066036 0.565652 0.5201539 0.30918765
0.55982983 -0.040292185 -0.04991577 0.41255927 0.410681 -0.9545506 0.44105613 -0.9204659
-0.92028284 -0.92009914 -0.9205 -0.920326 0.1477567 -1.195351 0.35850304 1.2334161
0.6118765 1.20987 1.2345767 -0.3630404 0.6131463 0.8648024 -0.49500722 -0.21167162
1.1426101 -0.77067995 -0.47881305 -0.59297764 -0.18804865 -0.3837615 -1.052551 -1.7180227
-0.02933529 1.7048194 0.9941439 0.6712949 0.44654828 0.6158657 0.056656513 0.6107318
1.1264647 -0.5855492 0.29837826 -0.85061747 0.67935073 -0.045466173 0.33743593 0.48365
0.6734665 0.48001987 0.35749716 1.3276343 1.2323542 0.19685842 0.45463505 1.0331619
-0.3736578 -0.7065549 0.50550556 -0.013089222 0.6751117 0.7128776 -0.109096244 0.5602913
0.861608 0.16528015 0.61094075 1.5625498 0.58762836 0.017583419 -0.21547 0.0012969533
0.06179342 0.04073477 -0.78912926 -0.032108944 -0.62657464 0.52978826 -0.76812637 0.206633
0.5270235 0.05954998 -0.18172882 0.18134476 0.71028197 0.51907665 -0.054232854 -0.8220636
0.074338764 0.8370736 0.8297871 0.7583591 0.85529995 0.7704472 0.25765863 1.6291054
0.291471 0.33312124 0.23635477 1.3898504 1.5604284 0.36765832 0.13042502 1.4811355
-0.41474643 -0.6863712 -0.7795601 0.84873825 -0.017791886 -1.0008165 1.3292228 -1.3069698
-0.39573634 0.5856381 0.14396939 1.8103931 0.5802688 0.13534668 0.62805945 -1.122848
-1.1416464 -1.0099895 0.95941204 0.60521865 -1.5882806 0.8566385 -0.050091773 0.8570926
0.30813342 0.15209854 0.43069243 0.13014081 -0.5665307 0.26826298 -0.21519066 -1.4069121
0.8820848 0.9977913 -0.52728546 -0.9215773 0.07243822 1.3097824 0.61541075 0.9087727
0.97630364 0.51798236 0.40040866 -0.06283376 -0.62233365 0.3697592 -0.26315773 -0.30281198
0.2900042 -0.26425916 0.8323411 0.73719025 0.16409269 0.8194269 0.42614514 -0.54922885
0.6353998 -0.17972004 0.36858293 -0.26411268 0.14151187 0.06201666 -0.64811903 0.39150545
0.16057168 -0.22557032 0.5412115 0.80163366 0.7829771 0.9029652 0.76348394 0.9246835
1.3814192 1.4956073 0.07509818 -0.23946618 -0.12988481 0.7703897 0.18316005 -0.032065462
0.61722565 -0.85797995 0.54802984 0.35076714 -0.856524 0.4269247 0.57561505 0.7635858
-0.6440167 0.25531894 -0.13306288 -0.3751129 0.1161162 -0.07494645 -0.18949895 -0.16674115
0.07253698 -0.5303494 0.18030572 -0.46166632 0.91459095 -0.13983259 0.4397264 0.47512457
0.106526606 -0.067630485 -0.038928073 0.5261865 0.5206914 0.5704181 1.186069 -0.37927642
-0.08649837 0.88706744 0.8017638 0.19140862 0.45020744 0.83814687 0.58144116 -0.99718446
0.37921622 -0.006068578 -0.3085474 0.05384787 0.039106745 0.502912 0.4386537 0.2605213
-0.37946123 -0.09771827 0.38716683 0.5471554 0.8015633 0.83601975 0.5341472 0.75743926
00000000: b554 053f 34c1 623f ba74 46be 4141 ef3d
00000010: 3c29 ffbc bb15 203f 8b52 683f 4942 453f
00000020: 8c46 c9bf c1dc 593f 6127 d5be b395 4c3f
00000030: c428 81bd 92ce 103f ce28 053f d84d 9e3e
00000040: 0251 0f3f 6b09 25bd 7a74 4cbd f83a d33e
00000050: c844 d23e 6e5d 74bf 1cd2 e13e a7a3 6bbf
00000060: a897 6bbf 9e8b 6bbf e3a5 6bbf 7c9a 6bbf
00000070: 884d 173e 4301 99bf b68d b73e 94e0 9d3f
00000080: f0a3 1c3f 05dd 9a3f 9c06 9e3f 6ee0 b9be
00000090: 28f7 1c3f b163 5d3f 9671 fdbe 72c0 58be
000000a0: 0c41 923f 484b 45bf fc26 f5be 62cd 17bf
000000b0: d38f 40be 637c c4be feb9 86bf 2be8 dbbf
000000c0: 9050 f0bc 8637 da3f 3780 7e3f fcd9 2b3f
000000d0: faa1 e43e 60a9 1d3f a910 683d eb58 1c3f
000000e0: ff2f 903f 8de6 15bf 09c5 983e 11c2 59bf
000000f0: eee9 2d3f bd3a 3abd 67c4 ac3e f9a0 f73e
00000100: 4d68 2c3f 2ac5 f53e de09 b73e ecef a93f
00000110: c8bd 9d3f 4195 493e edc5 e83e a63e 843f
00000120: 1350 bfbe c8e0 34bf d068 013f 2d74 56bc
00000130: 1fd4 2c3f 257f 363f da6d dfbd 406f 0f3f
00000140: 5892 5c3f 333f 293e 9d66 1c3f a201 c83f
00000150: d06e 163f 1a0b 903c 2ba4 5cbe 88fe a93a
00000160: 191b 7d3d 81d9 263d 6004 4abf ab84 03bd
00000170: 3267 20bf 34a0 073f eea3 44bf 9a97 533e
00000180: 03eb 063f aeea 733d 1f17 3abe 71b2 393e
00000190: 0ad5 353f 35e2 043f 4523 5ebd c372 52bf
000001a0: ec3e 983d 754a 563f ed6c 543f d223 423f
000001b0: f0f4 5a3f 073c 453f d5eb 833e 8786 d03f
000001c0: b03b 953e de8e aa3e fc06 723e 9ee6 b13f
000001d0: 1ebc c73f b63d bc3e 238e 053e d995 bd3f
000001e0: a559 d4be 06b6 2fbf 4091 47bf e946 593f
000001f0: 4ac0 91bc c11a 80bf f923 aa3f c94a a7bf
00000200: f49d cabe 61ec 153f b66c 133e f6ba e73f
00000210: 7f8c 143f 5298 0a3e 81c8 203f 7cb9 8fbf
00000220: 7821 92bf 5647 81bf 079c 753f 9cef 1a3f
00000230: c74c cbbf a94c 5b3f 082d 4dbd 6c6a 5b3f
00000240: aac3 9d3e b8bf 1b3e b883 dc3e a243 053e
00000250: 2808 11bf c459 893e f15a 5cbe b215 b4bf
00000260: 4fd0 613f 406f 7f3f 2efc 06bf 7dec 6bbf
00000270: 7d5a 943d f3a6 a73f 8f8b 1d3f 54a5 683f
00000280: 09ef 793f 7e9a 043f 5d02 cd3e fdae 80bd
00000290: 4251 1fbf 1451 bd3e 9cbc 86be 2c0a 9bbe
000002a0: 6e7b 943e fa4c 87be 4e14 553f 80b8 3c3f
000002b0: ea07 283e f6c5 513f b22f da3e 439a 0cbf
000002c0: 90a9 223f 8808 38be e7b6 bc3e c739 87be
000002d0: 7de8 103e 2e05 7e3d 21eb 25bf 6773 c83e
000002e0: e76c 243e e8fb 66be d68c 0a3f dd37 4d3f
000002f0: 3071 483f ba28 673f af73 433f 0fb8 6c3f
00000300: 58d2 b03f 0f70 bf3f 13cd 993d 9f36 75be
00000310: 8600 05be 4238 453f 4f8e 3b3e 1357 03bd
00000320: 8002 1e3f 93a4 5bbf af4b 0c3f c097 b33e
00000330: 2845 5bbf e095 da3e 825b 133f 5c7a 433f
00000340: 47de 24bf 2ab9 823e a341 08be cc0e c0be
00000350: 55ce ed3d 867d 99bd 030c 42be 31be 2abe
00000360: 458e 943d fac4 07bf 10a2 383e 875f ecbe
00000370: a222 6a3f 4630 0fbe d223 e13e 8743 f33e
00000380: 9f2a da3d da81 8abd 0b73 1fbd 29b4 063f
00000390: 084c 053f ec06 123f 1cd1 973f 8530 c2be
000003a0: 0f26 b1bd da16 633f 6440 4d3f 9f00 443e
000003b0: 9781 e63e cb90 563f 54d9 143f 7b47 7fbf
000003c0: a128 c23e ecda c6bb edf9 9dbe 968f 5c3d
000003d0: 652e 203d d7be 003f 3897 e03e 0c63 853e
000003e0: be48 c2be 8420 c8bd bb3a c63e 6012 0c3f
000003f0: 4133 4d3f 6405 563f dfbd 083f 8ae7 413f

l1.bias f4 [8]
0.92038465 1.7083435 1.6711757 1.1856332 1.539183 0.8761826 0.91831845 1.0350591
00000000: 549e 6b3f 00ab da3f 16e9 d53f d4c2 973f
00000010: f303 c53f 814d 603f eb16 6b3f d17c 843f

l2.weight f4 [8, 8]
0.23495132 1.5148975 -0.35869983 -1.6330622 1.4426798 1.767382 0.1895458 -1.2972516
2.154775 1.3717424 -1.482083 1.1474372 -1.4044375 1.1468122 1.1723443 0.17138003
2.0083416 0.066561386 2.8433073 2.340865 2.552012 1.9063715 -1.6843697 0.65379894
1.3146244 1.1979886 -0.9388379 1.2443472 0.6018513 -1.7713479 2.2913043 -1.0773427
1.443761 0.5383504 0.5200337 0.5070727 -1.7912123 0.17499925 0.39077073 2.5944088
-1.522696 2.0080805 1.9412512 -1.129557 -0.41984236 -0.06477212 0.74895537 2.6903634
-0.42399514 -1.062966 0.4713039 2.0295844 1.1819724 -0.4267776 1.3881555 1.0143675
-1.2567415 -0.603032 0.4004233 0.05818474 0.76851547 2.6514237 1.3610889 1.4923887
00000000: 1497 703e 29e8 c13f 81a7 b7be 2f08 d1bf
00000010: bba9 b83f 9339 e23f 4b18 423e 570c a6bf
00000020: d5e7 0940 4195 af3f e5b4 bdbf 39df 923f
00000030: 9cc4 b3bf beca 923f 610f 963f 3f7e 2f3e
00000040: ab88 0040 5651 883d bff8 3540 bbd0 1540
00000050: 2a54 2340 fb03 f43f 6d99 d7bf 5e5f 273f
00000060: 9d45 a83f b157 993f ae57 70bf c546 9f3f
00000070: ed12 1a3f 87bb e2bf bba4 1240 5ee6 89bf
00000080: 29cd b83f 55d1 093f ee20 053f 84cf 013f
00000090: 7246 e5bf 0133 333e 1a13 c83e cb0a 2640
000000a0: b4e7 c2bf 6484 0040 eb7a f83f 5395 90bf
000000b0: 94f5 d6be 3fa7 84bd 8abb 3f3f ea2e 2c40
000000c0: e415 d9be 450f 88bf bf4e f13e b6e4 0140
000000d0: df4a 973f 9882 dabe 14af b13f cbd6 813f
000000e0: e8dc a0bf 4e60 1abf 4804 cd3e 1f53 6e3d
000000f0: 6ebd 443f edb0 2940 2938 ae3f 9806 bf3f

l2.bias f4 [8]
1.2079284 0.0042743366 0.6667817 0.8074421 0.37490126 0.67282534 -0.040537585 -0.033345528
00000000: 669d 9a3f bc0f 8c3b 35b2 2a3f 87b4 4e3f
00000010: 0ff3 bf3e 483e 2c3f bd0a 26bd 5295 08bd

l3.weight f4 [42, 8]
-0.51821154 -1.1677092 0.89628917 -0.4775239 0.12557724 -0.8548384 -0.21517126 -1.8395964
-0.18892515 -2.7771206 0.22023739 -2.8058882 0.17743343 0.99837744 -1.2752572 0.14794841
-0.083096996 -0.4136877 -1.4844079 -0.2780953 0.41597325 0.57005644 -0.9118449 0.32518435
-0.3115989 0.45779133 -3.0555427 0.23561421 0.34877828 0.1791129 -0.40843222 -0.39097616
-0.30652303 0.108237736 -0.65740705 0.6157931 -0.716113 -1.3157732 0.19946541 -0.831042
0.13985537 0.009685054 -0.953846 0.55208516 -1.2305007 0.3850467 -0.44581422 -1.3351676
0.1539588 0.485943 -0.10338276 -0.06883416 -0.35973722 -1.2540461 -1.2492335 -0.48344478
-1.6892664 0.19241245 -0.30192363 -0.5017219 0.35166728 0.4977503 -1.1160629 -0.6316931
-1.7202146 0.077857584 -0.07418901 0.6313573 0.40603417 -2.0266252 0.08162324 -2.625185
-0.5753564 0.80959404 0.23047704 -0.033937126 0.19808553 -2.4923263 -1.7672728 -1.890254
0.04620271 -0.81056154 -0.23676349 -1.567309 0.10008773 0.28439668 -0.1378301 0.10185659
0.4897632 0.073473826 -1.6209463 0.06399979 -0.52239794 -0.7147234 0.2321283 0.15608174
-0.37450534 -1.5353293 0.005261866 -0.70348114 -0.8404991 -2.6334553 0.65128654 0.5777031
0.43344706 -2.452313 0.000360758 -0.61209226 -1.0805622 -0.62357336 0.01875814 0.18467195
0.11158669 -0.5088051 0.46696115 -2.6014767 -1.106238 -2.2111099 -0.32890072 0.56342924
0.15774179 -0.050208192 -0.07594637 -0.8500543 -1.3163912 -0.5781296 -0.81651187 0.29694167
-0.24752526 -0.11191616 -0.4105743 -2.103377 0.4892539 1.1037977 -2.0849001 -0.73711437
0.2561806 0.06389211 -1.0815446 -0.359057 0.5202887 0.94610125 -1.6746804 -2.0043716
0.34966838 0.27018625 -0.11004924 0.30336782 0.13073033 -0.5488359 -2.6877408 -2.7991526
0.12943876 -0.006591207 0.45512933 0.32333255 -0.6001925 -3.2858417 -0.43609133 -2.808735
0.70806175 -0.24521042 -0.02154016 0.23321655 -1.2137532 0.5922937 -2.3121412 -3.1426837
0.41552237 0.062261116 0.5547164 -0.67698365 0.27158183 -1.6697999 -2.7662907 -1.3148972
0.41390017 0.2178716 -0.06528691 -1.1115685 0.30694196 0.11763484 -2.352526 -1.0632896
0.16039567 -0.70178753 0.10279601 -3.4094334 -0.7420092 -0.019938163 -1.1079081 0.5020476
1.010187 0.12999058 -2.9056609 0.41710076 -0.7919385 0.020029744 -1.2005755 -0.19518185
0.67911154 -0.90647656 0.41977552 -0.1668524 -1.2403558 -3.0161865 -0.5280062 -0.6073647
0.56368864 -1.7050232 0.42803955 -0.19640265 -1.5126479 0.32327574 -2.0769038 -0.57798094
0.93433905 0.16045177 0.27831972 -1.9430212 -0.8299614 -2.25702 -2.0737588 0.020814756
0.63949275 0.21083826 -0.2574556 -0.5843303 -0.84768313 -0.3158989 -3.2662172 -0.08019476
-2.2079065 -0.31766292 -0.62223035 -1.0165896 -0.04918113 0.65335494 -0.14853302 0.49863124
-1.8234936 -0.09448492 -1.4133704 0.18753122 0.012924496 0.13222118 0.4125281 0.08323707
-1.8937507 0.40085953 -0.3314369 0.24418649 0.19593188 -0.8618367 -0.1993884 -0.5737982
00000000: 83a9 04bf 7f77 95bf 3573 653f 037e f4be
00000010: 5297 003e b0d6 5abf db55 5cbe e577 ebbf
00000020: 9875 41be 58bc 31c0 e985 613e ac93 33c0
00000030: 1cb1 353e aa95 7f3f a13b a3bf ca7f 173e
00000040: c22e aabd e0ce d3be 1401 bebf 8262 8ebe
00000050: 72fa d43e 38ef 113f ab6e 69bf 907e a63e
00000060: e489 9fbe a063 ea3e 038e 43c0 da44 713e
00000070: 1193 b23e 5f69 373e 071e d1be 072e c8be
00000080: 96f0 9cbe bfab dd3d d44b 28bf 9ea4 1d3f
00000090: 2e53 37bf 426b a8bf a940 4c3e 2bbf 54bf
000000a0: 3f36 0f3e 10ae 1e3c 402f 74bf 7455 0d3f
000000b0: 0c81 9dbf d724 c53e c341 e4be c6e6 aabf
000000c0: 60a7 1d3e 85cd f83e 57ba d3bd edf8 8cbd
000000d0: 7a2f b8be 9584 a0bf e2e6 9fbf 1386 f7be
000000e0: e239 d8bf c507 453e bc95 9abe d970 00bf
000000f0: bc0d b43e 21d9 fe3e 26db 8ebf a4b6 21bf
00000100: fe2f dcbf cc73 9f3d 68f0 97bd a2a0 213f
00000110: b6e3 cf3e 3ab4 01c0 162a a73d 0803 28c0
00000120: 8f4a 13bf 8e41 4f3f 2c02 6c3e a801 0bbd
00000130: efd6 4a3e 4682 1fc0 ff35 e2bf d8f3 f1bf
00000140: 0e3f 3d3d f680 4fbf 2172 72be 959d c8bf
00000150: ccfa cc3d 719c 913e 5523 0dbe 309a d03d
00000160: 3ec2 fa3e 7279 963d 2b7b cfbf 5212 833d
00000170: dfbb 05bf 1df8 36bf 0bb3 6d3e e4d3 1f3e
00000180: 2abf bfbe ac85 c4bf bb6b ac3b 5717 34bf
00000190: f32a 57bf 888a 28c0 b7ba 263f 5ae4 133f
000001a0: c6ec dd3e b2f2 1cc0 1e24 bd39 14b2 1cbf
000001b0: dd4f 8abf 81a2 1fbf acaa 993c a51a 3d3e
000001c0: 9087 e43d 0d41 02bf 8815 ef3e 987e 26c0
000001d0: 3599 8dbf d382 0dc0 ad65 a8be e63c 103f
000001e0: 1087 213e 1ba7 4dbd c589 9bbd 299d 59bf
000001f0: 827f a8bf 4d00 14bf ec06 51bf bd08 983e
00000200: 4377 7dbe 4d34 e5bd cb36 d2be bb9d 06c0
00000210: 7d7f fa3e 3e49 8d3f 016f 05c0 87b3 3cbf
00000220: 1b2a 833e ded9 823d 0e70 8abf 52d6 b7be
00000230: a431 053f b133 723f ed5b d6bf a047 00c0
00000240: bc07 b33e da55 8a3e 7f61 e1bd 0753 9b3e
00000250: 2cde 053e 8280 0cbf f203 2cc0 5125 33c0
00000260: 988b 043e 0dfb d7bb b606 e93e d88b a53e
00000270: 37a6 19bf 3b4b 52c0 5d47 dfbe 50c2 33c0
00000280: 8943 353f 7118 7bbe fd74 b0bc 52d0 6e3e
00000290: 445c 9bbf 8fa0 173f 1ffa 13c0 bb21 49c0
000002a0: 59bf d43e 8305 7f3d e501 0e3f cd4e 2dbf
000002b0: c60c 8b3e 01bc d5bf e80a 31c0 8d4e a8bf
000002c0: b9ea d33e bc19 5f3e 25b5 85bd e047 8ebf
000002d0: 7f27 9d3e 89ea f03d c98f 16c0 e019 88bf
000002e0: c33e 243e 59a8 33bf b786 d23d 2834 5ac0
000002f0: 51f4 3dbf 5c55 a3bc efcf 8dbf 3186 003f
00000300: cf4d 813f 401c 053e 59f6 39c0 3b8e d53e
00000310: 7bbc 4abf 6b15 a43c 75ac 99bf c0dd 47be
00000320: 41da 2d3f d90e 68bf d1ec d63e 5bdb 2abe
00000330: fbc3 9ebf 3309 41c0 6a2b 07bf 417c 1bbf
00000340: e64d 103f 333e dabf 0028 db3e c71d 49be
00000350: 729e c1bf 6684 a53e feeb 04c0 8ff6 13bf
00000360: d830 6f3f 784d 243e ec7f 8e3e ebb4 f8bf
00000370: 5a78 54bf 0473 10c0 77b8 04c0 b583 aa3c
00000380: ccb5 233f fce5 573e 38d1 83be ac96 15bf
00000390: c301 59bf 80bd a1be b409 51c0 263d a4bd
000003a0: 574e 0dc0 b7a4 a2be 7d4a 1fbf 9c1f 82bf
000003b0: 2772 49bd 4542 273f 0a19 18be 984c ff3e
000003c0: 3d68 e9bf 4f81 c1bd 52e9 b4bf 2f08 403e
000003d0: 44c1 533c fd64 073e e236 d33e 3278 aa3d
000003e0: 6c66 f2bf 763d cd3e 19b2 a9be 060c 7a3e
000003f0: 5ea2 483e 54a1 5cbf 792c 4cbe 70e4 12bf

l3.bias f4 [42]
0.63232076 0.1306893 -0.17209528 -0.04617862 -0.27179772 -0.4040632 -0.18209632 -0.044916138
0.03673462 0.095621444 -0.17080253 0.072700836 -0.0460825 -0.2754636 -0.0048331344 -0.41429436
0.13094994 0.09838748 -0.019872349 0.011579148 -0.30649 -0.0023463345 -0.10256126 -0.13170278
0.2707811 0.37944302 0.41509432 0.07068409 0.027800934 0.025027039 -0.07524891 0.032980073
-0.20783328 -0.09472549 -0.14160205 -0.14881234 0.048545584 0.0065096165 0.14678147 0.30782035
0.08420122 -0.08260296
00000000: c6df 213f 6ad3 053e bf39 30be cb25 3dbd
00000010: 1229 8bbe 5fe1 cebe 7577 3abe fcf9 37bd
00000020: 0a77 163d 2dd5 c33d dce6 2ebe 2de4 943d
00000030: 01c1 3cbd 9109 8dbe 455f 9ebb 641e d4be
00000040: be17 063e 607f c93d 56cb a2bc 77b6 3d3c
00000050: 42ec 9cbe f6c4 19bb a30b d2bd 18dd 06be
00000060: d2a3 8a3e 5b46 c23e 3e87 d43e d2c2 903d
00000070: c9be e33c 8105 cd3c 1a1c 9abd 1d16 073d
00000080: 3fd2 54be 70ff c1bd 2100 11be 4362 18be
00000090: bcd7 463d 9f4e d53b e24d 163e a19a 9d3e
000000a0: b071 ac3d be2b a9bd
